optimized_mvsnet.pth (torch, 789606 bytes, 17 tensors)

conv1.weight bf16 [32, 3, 3, 3]
000000 8a 3d e0 bd 0f be 37 3e 35 3e 76 3b 9f bc c8 3d
       0.06738281 -0.109375 -0.13964844 0.17871094 0.17675781 0.003753662 -0.01940918 0.09765625
000010 c5 3d c0 3c b7 3d f9 bd 2f be 0a be c5 3d c4 3d
       0.096191406 0.0234375 0.08935547 -0.12158203 -0.17089844 -0.13476562 0.096191406 0.095703125
000020 2c 3e 76 bd b7 bd 05 3d 91 bd cf bd 1d 3c be 3d
       0.16796875 -0.060058594 -0.08935547 0.032470703 -0.07080078 -0.10107422 0.0095825195 0.09277344
000030 cd bd 54 3c d4 3d e1 3b 99 bd a7 3c ee bd c2 bd
       -0.100097656 0.012939453 0.103515625 0.006866455 -0.07470703 0.020385742 -0.11621094 -0.09472656
000040 0c be 18 be 01 be 01 be ed bc ee 3d 53 3d 3c 3d
       -0.13671875 -0.1484375 -0.12597656 -0.12597656 -0.028930664 0.11621094 0.051513672 0.045898438
000050 f7 3d 32 3e 44 be ce 3b 38 be 37 3d 57 bd 3b 3e
       0.12060547 0.17382812 -0.19140625 0.006286621 -0.1796875 0.044677734 -0.052490234 0.18261719
000060 d5 bd 51 3c eb bd f5 bd 44 3e ef bd 41 3e 9c 3c
       -0.104003906 0.012756348 -0.114746094 -0.119628906 0.19140625 -0.11669922 0.18847656 0.019042969
000070 8b bd 2d 3e 12 3d e6 3d 30 be 96 3d f3 3d ae 3d
       -0.067871094 0.16894531 0.03564453 0.11230469 -0.171875 0.07324219 0.118652344 0.08496094
000080 bf 3d 1c 3e ef bd c2 bd 0c be bf bd fa 3c 2f 3e
       0.09326172 0.15234375 -0.11669922 -0.09472656 -0.13671875 -0.09326172 0.030517578 0.17089844
000090 e1 3d f6 bc 0e bd 00 be 0c be 02 3e 20 be f4 3d
       0.10986328 -0.030029297 -0.03466797 -0.125 -0.13671875 0.12695312 -0.15625 0.119140625
0000a0 32 3e 50 3c e0 3d 27 3e 43 3e b7 bd 38 3e 04 be
       0.17382812 0.0126953125 0.109375 0.16308594 0.19042969 -0.08935547 0.1796875 -0.12890625
0000b0 43 bd 91 3d 94 bd 14 3d 33 be 79 bd 71 bc f3 3d
       -0.047607422 0.07080078 -0.072265625 0.036132812 -0.17480469 -0.060791016 -0.014709473 0.118652344
0000c0 42 bd e5 bd 1e be 43 be f6 bc 0a bd de 3a e4 bd
       -0.04736328 -0.111816406 -0.15429688 -0.19042969 -0.030029297 -0.033691406 0.0016937256 -0.111328125
0000d0 e4 3d 25 be 9e 3d 31 be 28 be 2a 3d 2d be 0a be
       0.111328125 -0.16113281 0.07714844 -0.17285156 -0.1640625 0.041503906 -0.16894531 -0.13476562
0000e0 21 3e 35 be e6 bd 9b bd d2 3d 0b 3d f1 bc 22 bd
       0.15722656 -0.17675781 -0.11230469 -0.075683594 0.10253906 0.033935547 -0.029418945 -0.03955078
0000f0 a0 bc 40 be 4a bd 3e 3d 39 be 35 3e 21 3e b7 bd
       -0.01953125 -0.1875 -0.049316406 0.04638672 -0.18066406 0.17675781 0.15722656 -0.08935547
000100 21 3c f7 3d 3e 3d e1 3d d7 bb 38 39 71 bd e3 bd
       0.00982666 0.12060547 0.04638672 0.10986328 -0.0065612793 0.00017547607 -0.05883789 -0.110839844
000110 3c bd 9e bd 3d 3d 2a 3e fc bd fe 3d 23 be 39 3e
       -0.045898438 -0.07714844 0.046142578 0.16601562 -0.123046875 0.12402344 -0.15917969 0.18066406
000120 20 be 22 be de 3d 2c 3e 25 be 48 3d 15 3e ba 3d
       -0.15625 -0.15820312 0.10839844 0.16796875 -0.16113281 0.048828125 0.14550781 0.09082031
000130 1f bd f8 3d a0 3d 33 3e 89 bb 90 bd b6 bc 90 bd
       -0.03881836 0.12109375 0.078125 0.17480469 -0.004180908 -0.0703125 -0.022216797 -0.0703125
000140 18 be b5 3d f8 bd 71 bd 74 3d b1 bd 14 be 0e bd
       -0.1484375 0.088378906 -0.12109375 -0.05883789 0.059570312 -0.08642578 -0.14453125 -0.03466797
000150 c6 3d f7 3d 14 3e b6 3c f2 3c aa bd 18 3e b2 bd
       0.09667969 0.12060547 0.14453125 0.022216797 0.029541016 -0.08300781 0.1484375 -0.08691406
000160 99 bd bb bd 36 bd 90 bd 9f 3d 27 bc a4 bd eb 3d
       -0.07470703 -0.091308594 -0.044433594 -0.0703125 0.07763672 -0.010192871 -0.080078125 0.114746094
000170 93 bd 42 be 34 3e 42 3d 43 3c fc 3d a3 bc 36 3e
       -0.071777344 -0.18945312 0.17578125 0.04736328 0.0119018555 0.123046875 -0.019897461 0.17773438
000180 35 be 8a 3d 88 3d 0a 3e 53 bd 36 be 57 3d 0d 3e
       -0.17675781 0.06738281 0.06640625 0.13476562 -0.051513672 -0.17773438 0.052490234 0.13769531
000190 c0 3d b3 3c 72 bd ad bd d1 bc 11 be 1a 3e a3 3c
       0.09375 0.021850586 -0.05908203 -0.084472656 -0.025512695 -0.14160156 0.15039062 0.019897461
0001a0 ef bd f4 3d 20 3e e9 3d 40 3e b1 3d 49 bd 8a 3d
       -0.11669922 0.119140625 0.15625 0.11376953 0.1875 0.08642578 -0.049072266 0.06738281
0001b0 b5 3c 83 3b 43 be b6 3c be 3d 44 bd 16 be c3 bd
       0.022094727 0.0039978027 -0.19042969 0.022216797 0.09277344 -0.047851562 -0.14648438 -0.095214844
0001c0 a0 3d 2e be 26 3c 8e bc f6 bd ed 3d d5 3d 39 3e
       0.078125 -0.16992188 0.010131836 -0.017333984 -0.12011719 0.115722656 0.104003906 0.18066406
0001d0 19 be 68 3d 0c be 05 be fc 3d fc 3c 39 be e8 bd
       -0.14941406 0.056640625 -0.13671875 -0.12988281 0.123046875 0.030761719 -0.18066406 -0.11328125
0001e0 15 be 1d be f5 bd 19 3e 34 be 14 bd 27 3c 3c 3e
       -0.14550781 -0.15332031 -0.119628906 0.14941406 -0.17578125 -0.036132812 0.010192871 0.18359375
0001f0 1b 3e 3b 3e 29 be 00 be 3d 3e 43 3e cd 3d 3e be
       0.15136719 0.18261719 -0.16503906 -0.125 0.18457031 0.19042969 0.100097656 -0.18554688

conv1.bias bf16 [32]
000000 db bc 28 3e 8b 3b ab bd 0e be 43 be 0e 3e 0c be
       -0.026733398 0.1640625 0.0042419434 -0.083496094 -0.13867188 -0.19042969 0.13867188 -0.13671875
000010 2b 3e e0 bd ce 3d 45 be 50 bc e4 bd 51 b8 ae bd
       0.16699219 -0.109375 0.10058594 -0.19238281 -0.0126953125 -0.111328125 -4.9829483e-05 -0.08496094
000020 fa bd 77 bc 3e be 12 3e 13 be 89 bd d8 bd 8a 3d
       -0.12207031 -0.015075684 -0.18554688 0.14257812 -0.14355469 -0.06689453 -0.10546875 0.06738281
000030 96 bd ab bc 6d bd 33 3d c6 3d a7 bd ae 3d 35 be
       -0.07324219 -0.020874023 -0.057861328 0.043701172 0.09667969 -0.08154297 0.08496094 -0.17675781

gn1.weight bf16 [32]
000000 80 3f 80 3f 80 3f 80 3f 80 3f 80 3f 80 3f 80 3f
       1.0 1.0 1.0 1.0 1.0 1.0 1.0 1.0
000010 80 3f 80 3f 80 3f 80 3f 80 3f 80 3f 80 3f 80 3f
       1.0 1.0 1.0 1.0 1.0 1.0 1.0 1.0
000020 80 3f 80 3f 80 3f 80 3f 80 3f 80 3f 80 3f 80 3f
       1.0 1.0 1.0 1.0 1.0 1.0 1.0 1.0
000030 80 3f 80 3f 80 3f 80 3f 80 3f 80 3f 80 3f 80 3f
       1.0 1.0 1.0 1.0 1.0 1.0 1.0 1.0

gn1.bias bf16 [32]
000000 00 00 00 00 00 00 00 00 00 00 00 00 00 00 00 00
       0.0 0.0 0.0 0.0 0.0 0.0 0.0 0.0
000010 00 00 00 00 00 00 00 00 00 00 00 00 00 00 00 00
       0.0 0.0 0.0 0.0 0.0 0.0 0.0 0.0
000020 00 00 00 00 00 00 00 00 00 00 00 00 00 00 00 00
       0.0 0.0 0.0 0.0 0.0 0.0 0.0 0.0
000030 00 00 00 00 00 00 00 00 00 00 00 00 00 00 00 00
       0.0 0.0 0.0 0.0 0.0 0.0 0.0 0.0

conv2.weight bf16 [64, 32, 3, 3]
000000 1c 3d 6c 3d 18 3d 3c 3a 84 3a 85 bc 19 3c a6 bc
       0.038085938 0.057617188 0.037109375 0.0007171631 0.0010070801 -0.016235352 0.009338379 -0.020263672
000010 15 bc 18 3c 24 bc 75 bc fb 3c c7 3b 24 bc 15 3d
       -0.009094238 0.009277344 -0.010009766 -0.014953613 0.030639648 0.006072998 -0.010009766 0.036376953
000020 5f bd 92 bc fd bc 57 bd 9f bc ae 3c 03 3c 56 3d
       -0.05444336 -0.017822266 -0.030883789 -0.052490234 -0.01940918 0.021240234 0.0079956055 0.052246094
000030 b6 3a 17 bc 3a 3d e2 3c 8e 3c 72 3c 51 3d 10 3d
       0.0013885498 -0.009216309 0.045410156 0.02758789 0.017333984 0.014770508 0.05102539 0.03515625
000040 35 bd 01 bd c9 bc cc 3c 6e bd 16 3d 32 bd 7b 3b
       -0.044189453 -0.03149414 -0.024536133 0.024902344 -0.05810547 0.036621094 -0.04345703 0.003829956
000050 fd 3c 5c bd 53 3d d7 bc 62 bc 4d bd 06 bd c4 b9
       0.030883789 -0.053710938 0.051513672 -0.026245117 -0.013793945 -0.050048828 -0.032714844 -0.00037384033
000060 40 bd 2a 3d 8d bb 31 bc da 3c 7a 3c 17 3c 5d bd
       -0.046875 0.041503906 -0.0043029785 -0.010803223 0.026611328 0.015258789 0.009216309 -0.053955078
000070 bc 3c 11 3d a1 bc 57 3d 28 3d b2 bc 81 bb 21 3d
       0.022949219 0.03540039 -0.01965332 0.052490234 0.041015625 -0.021728516 -0.0039367676 0.03930664
000080 43 3d ae 3b 56 bb 6f 3d 2c 3d 55 bd 07 3c fc 3c
       0.047607422 0.0053100586 -0.0032653809 0.05834961 0.041992188 -0.052001953 0.008239746 0.030761719
000090 2c 3d da bc 3f bd 10 3d 04 3d 41 bd d6 3c 0d bd
       0.041992188 -0.026611328 -0.04663086 0.03515625 0.032226562 -0.04711914 0.026123047 -0.034423828
0000a0 58 bc 90 3c a4 3c 98 bc 98 bc 17 ba 51 3d a1 3c
       -0.013183594 0.017578125 0.020019531 -0.018554688 -0.018554688 -0.0005760193 0.05102539 0.01965332
0000b0 e8 ba 2e bc 8a 3c b4 bc c0 3c 5c 3d 16 bb b5 3c
       -0.0017700195 -0.010620117 0.016845703 -0.021972656 0.0234375 0.053710938 -0.0022888184 0.022094727
0000c0 5e 3d 6f 3d c0 39 0d 3d 67 3c 9c bb 6b 3d b1 3c
       0.05419922 0.05834961 0.00036621094 0.034423828 0.014099121 -0.004760742 0.057373047 0.021606445
0000d0 33 bd 55 3a ea bc 52 38 94 b9 9a 3c 17 bd 2a bd
       -0.043701172 0.0008125305 -0.028564453 5.00679e-05 -0.0002822876 0.018798828 -0.036865234 -0.041503906
0000e0 07 3d 12 bd bc 3c 44 bd 0e bc 5d bd 02 3c 1a bd
       0.032958984 -0.03564453 0.022949219 -0.047851562 -0.008666992 -0.053955078 0.00793457 -0.037597656
0000f0 3a 3b ba 3c d6 3c 03 3d 08 bd 09 3d 81 bc 66 bc
       0.0028381348 0.022705078 0.026123047 0.031982422 -0.033203125 0.033447266 -0.01574707 -0.014038086
000100 51 3d b5 bc 01 bd 76 3c 52 3c f5 bb 40 bc 4a bd
       0.05102539 -0.022094727 -0.03149414 0.015014648 0.012817383 -0.0074768066 -0.01171875 -0.049316406
000110 e7 bc e3 bc 8e bc 6f bd 3b 3c d4 3b 5f 3d 64 bd
       -0.028198242 -0.027709961 -0.017333984 -0.05834961 0.011413574 0.0064697266 0.05444336 -0.055664062
000120 82 bb bb 3c 8c 3c 06 bd 4c bd 82 3b 51 b9 8c 3c
       -0.003967285 0.022827148 0.017089844 -0.032714844 -0.049804688 0.003967285 -0.00019931793 0.017089844
000130 63 bd 65 bd aa 3b da 3c 7c 3b 70 bd 25 3d 8b bc
       -0.055419922 -0.055908203 0.0051879883 0.026611328 0.0038452148 -0.05859375 0.040283203 -0.016967773
000140 17 3d d8 bb 43 3d 02 bd 61 bd dc bc 11 3d 17 bd
       0.036865234 -0.006591797 0.047607422 -0.03173828 -0.05493164 -0.026855469 0.03540039 -0.036865234
000150 31 bd 1b 3d 60 bd 3e 3d 43 3d e8 3b 5e bd 6b bd
       -0.04321289 0.037841797 -0.0546875 0.04638672 0.047607422 0.007080078 -0.05419922 -0.057373047
000160 4a 3b 33 bd 8e bc 59 bc 07 3d 4e bd 0c bc a9 bc
       0.0030822754 -0.043701172 -0.017333984 -0.013244629 0.032958984 -0.05029297 -0.008544922 -0.020629883
000170 e6 3c 2e 3d 1f 3b 57 bc 62 bd 4f 3d 0d 3d fc bc
       0.028076172 0.04248047 0.0024261475 -0.013122559 -0.05517578 0.05053711 0.034423828 -0.030761719
000180 cb 3c 05 bd 70 3d 40 3d 07 bd 09 bd 3a bb 82 bc
       0.024780273 -0.032470703 0.05859375 0.046875 -0.032958984 -0.033447266 -0.0028381348 -0.01586914
000190 fa bc 05 bd 09 3c 42 3d 3b bb 04 bd 17 3b 04 bd
       -0.030517578 -0.032470703 0.008361816 0.04736328 -0.0028533936 -0.032226562 0.0023040771 -0.032226562
0001a0 cc bc 4f bd b9 3a 95 3c 09 3c 6e 3d 21 bd 7e bc
       -0.024902344 -0.05053711 0.001411438 0.018188477 0.008361816 0.05810547 -0.03930664 -0.01550293
0001b0 55 bd 07 bd 4f b9 c8 3c 61 bc 43 bd 2c 3b fa 3c
       -0.052001953 -0.032958984 -0.00019741058 0.024414062 -0.01373291 -0.047607422 0.0026245117 0.030517578
0001c0 f9 bc 1e 3d 48 bd 9d bb f9 bc 7f 3c 05 3d 4c 3d
       -0.030395508 0.03857422 -0.048828125 -0.0047912598 -0.030395508 0.015563965 0.032470703 0.049804688
0001d0 16 bd a4 3c 6a bd 6e bc 4d bd 17 3c 0e bc 4c 3d
       -0.036621094 0.020019531 -0.057128906 -0.014526367 -0.050048828 0.009216309 -0.008666992 0.049804688
0001e0 76 3c 88 ba 32 bd 5f bd f0 3c cd 3c 4a 3c 51 bc
       0.015014648 -0.0010375977 -0.04345703 -0.05444336 0.029296875 0.025024414 0.012329102 -0.012756348
0001f0 35 bd a0 bb 20 bb 9e bb 0f 3d 2f 3c 60 bd 6d 3a
       -0.044189453 -0.0048828125 -0.0024414062 -0.0048217773 0.03491211 0.010681152 -0.0546875 0.00090408325

conv2.bias bf16 [64]
000000 9d bb 25 3c 24 3d 69 3d 4a bd 27 bd 28 3d d0 3c
       -0.0047912598 0.010070801 0.040039062 0.056884766 -0.049316406 -0.040771484 0.041015625 0.025390625
000010 50 bd 04 3d 6f bd 3c 3d 34 3d 09 bd 47 3a 47 3d
       -0.05078125 0.032226562 -0.05834961 0.045898438 0.043945312 -0.033447266 0.00075912476 0.048583984
000020 37 bd a5 3c f1 bc 43 3d 34 3d 0f 3d 70 bb 2a 3c
       -0.044677734 0.020141602 -0.029418945 0.047607422 0.043945312 0.03491211 -0.0036621094 0.010375977
000030 02 bd 6a bd a7 3b df 3c 09 bd 88 bb c2 3c fb 3c
       -0.03173828 -0.057128906 0.0050964355 0.02722168 -0.033447266 -0.0041503906 0.02368164 0.030639648
000040 21 3c 60 3d 3f 3a 12 bc 87 3c 1b 3d 48 3d dd bc
       0.00982666 0.0546875 0.0007286072 -0.008911133 0.016479492 0.037841797 0.048828125 -0.026977539
000050 e7 bc 5a bc 58 bd 67 bd 70 bd 38 bd e8 bc 00 3d
       -0.028198242 -0.013305664 -0.052734375 -0.056396484 -0.05859375 -0.044921875 -0.028320312 0.03125
000060 bf bc 61 3d 0c 3d 9d 3b 13 3c 29 3d 55 bd 1a bb
       -0.02331543 0.05493164 0.034179688 0.0047912598 0.008972168 0.041259766 -0.052001953 -0.0023498535
000070 06 bb 8d 3c db 39 3e bd 32 bd 23 3c 5a bd 9c bc
       -0.0020446777 0.017211914 0.00041770935 -0.04638672 -0.04345703 0.0099487305 -0.053222656 -0.019042969

gn2.weight bf16 [64]
000000 80 3f 80 3f 80 3f 80 3f 80 3f 80 3f 80 3f 80 3f
       1.0 1.0 1.0 1.0 1.0 1.0 1.0 1.0
000010 80 3f 80 3f 80 3f 80 3f 80 3f 80 3f 80 3f 80 3f
       1.0 1.0 1.0 1.0 1.0 1.0 1.0 1.0
000020 80 3f 80 3f 80 3f 80 3f 80 3f 80 3f 80 3f 80 3f
       1.0 1.0 1.0 1.0 1.0 1.0 1.0 1.0
000030 80 3f 80 3f 80 3f 80 3f 80 3f 80 3f 80 3f 80 3f
       1.0 1.0 1.0 1.0 1.0 1.0 1.0 1.0
000040 80 3f 80 3f 80 3f 80 3f 80 3f 80 3f 80 3f 80 3f
       1.0 1.0 1.0 1.0 1.0 1.0 1.0 1.0
000050 80 3f 80 3f 80 3f 80 3f 80 3f 80 3f 80 3f 80 3f
       1.0 1.0 1.0 1.0 1.0 1.0 1.0 1.0
000060 80 3f 80 3f 80 3f 80 3f 80 3f 80 3f 80 3f 80 3f
       1.0 1.0 1.0 1.0 1.0 1.0 1.0 1.0
000070 80 3f 80 3f 80 3f 80 3f 80 3f 80 3f 80 3f 80 3f
       1.0 1.0 1.0 1.0 1.0 1.0 1.0 1.0

gn2.bias bf16 [64]
000000 00 00 00 00 00 00 00 00 00 00 00 00 00 00 00 00
       0.0 0.0 0.0 0.0 0.0 0.0 0.0 0.0
000010 00 00 00 00 00 00 00 00 00 00 00 00 00 00 00 00
       0.0 0.0 0.0 0.0 0.0 0.0 0.0 0.0
000020 00 00 00 00 00 00 00 00 00 00 00 00 00 00 00 00
       0.0 0.0 0.0 0.0 0.0 0.0 0.0 0.0
000030 00 00 00 00 00 00 00 00 00 00 00 00 00 00 00 00
       0.0 0.0 0.0 0.0 0.0 0.0 0.0 0.0
000040 00 00 00 00 00 00 00 00 00 00 00 00 00 00 00 00
       0.0 0.0 0.0 0.0 0.0 0.0 0.0 0.0
000050 00 00 00 00 00 00 00 00 00 00 00 00 00 00 00 00
       0.0 0.0 0.0 0.0 0.0 0.0 0.0 0.0
000060 00 00 00 00 00 00 00 00 00 00 00 00 00 00 00 00
       0.0 0.0 0.0 0.0 0.0 0.0 0.0 0.0
000070 00 00 00 00 00 00 00 00 00 00 00 00 00 00 00 00
       0.0 0.0 0.0 0.0 0.0 0.0 0.0 0.0

conv3.weight bf16 [128, 64, 3, 3]
000000 b1 3b f8 bc 14 bc a0 3c da bc d6 3c be 3c 16 3c
       0.0054016113 -0.030273438 -0.009033203 0.01953125 -0.026611328 0.026123047 0.02319336 0.009155273
000010 db bc fc bb 69 3b 29 bd 25 bd 26 3d 13 bd bb bc
       -0.026733398 -0.0076904297 0.0035552979 -0.041259766 -0.040283203 0.040527344 -0.035888672 -0.022827148
000020 8b 3c 0e 3d cc 3c 84 bc 90 bc be 3b 83 bc 2d bc
       0.016967773 0.03466797 0.024902344 -0.016113281 -0.017578125 0.00579834 -0.015991211 -0.010559082
000030 a4 3c e3 bc f0 bc af 3a c5 3c 36 bc b6 bc 0a bd
       0.020019531 -0.027709961 -0.029296875 0.001335144 0.024047852 -0.011108398 -0.022216797 -0.033691406
000040 3b bc aa 3c 10 bd 80 3c 20 3d 85 3c 20 3c 92 3b
       -0.011413574 0.020751953 -0.03515625 0.015625 0.0390625 0.016235352 0.009765625 0.0044555664
000050 94 3c c9 3c c4 3a 07 bd 9e 3c 92 bc 21 bd 51 3c
       0.018066406 0.024536133 0.0014953613 -0.032958984 0.01928711 -0.017822266 -0.03930664 0.012756348
000060 d3 3c 56 3c b1 bb 43 bc 16 3d b7 bc 33 3c e5 3c
       0.025756836 0.013061523 -0.0054016113 -0.0119018555 0.036621094 -0.022338867 0.010925293 0.027954102
000070 94 3b 28 3d 11 3d c8 3c ad bc 9b bb 7c 3c 61 bc
       0.0045166016 0.041015625 0.03540039 0.024414062 -0.021118164 -0.0047302246 0.015380859 -0.01373291
000080 e4 bc 0f bc 15 bd a4 3c 28 bd e5 bc d0 bc 69 bc
       -0.027832031 -0.008728027 -0.036376953 0.020019531 -0.041015625 -0.027954102 -0.025390625 -0.014221191
000090 14 3d 30 3b 04 bc 2a bc f8 3c 95 bc b7 bb c8 3c
       0.036132812 0.0026855469 -0.008056641 -0.010375977 0.030273438 -0.018188477 -0.005584717 0.024414062
0000a0 92 3c 61 bc ea bc ce 3c 59 bc 80 3c 90 bb cd 3b
       0.017822266 -0.01373291 -0.028564453 0.025146484 -0.013244629 0.015625 -0.0043945312 0.0062561035
0000b0 1d 3d 43 3c d6 3c d1 bb 1f bd 25 bd 7c ba 14 bd
       0.038330078 0.0119018555 0.026123047 -0.006378174 -0.03881836 -0.040283203 -0.0009613037 -0.036132812
0000c0 c6 bc 29 3d 07 3d 12 3c 18 bc 94 bc 00 bd 32 bc
       -0.024169922 0.041259766 0.032958984 0.008911133 -0.009277344 -0.018066406 -0.03125 -0.010864258
0000d0 25 3d f6 bc 13 bd ba 3c 90 bc 84 3c 6c bc 62 bb
       0.040283203 -0.030029297 -0.035888672 0.022705078 -0.017578125 0.016113281 -0.014404297 -0.0034484863
0000e0 8b bb 0b bb 2c 3c bc bc 7d bb 19 bd 0f bd ae 3b
       -0.0042419434 -0.0021209717 0.010498047 -0.022949219 -0.0038604736 -0.037353516 -0.03491211 0.0053100586
0000f0 8b bc 84 bc 0a 3d 0f 3d 0b bd fb b9 bc bc d6 bb
       -0.016967773 -0.016113281 0.033691406 0.03491211 -0.033935547 -0.0004787445 -0.022949219 -0.0065307617
000100 54 3c 1c bd 25 bd 2e bc 8e bb 9c 3c 9b bc 51 3c
       0.012939453 -0.038085938 -0.040283203 -0.010620117 -0.004333496 0.019042969 -0.018920898 0.012756348
000110 7a bc b8 bc f7 3c 47 3c ce 3c b2 bc ef bc 02 3d
       -0.015258789 -0.022460938 0.030151367 0.012145996 0.025146484 -0.021728516 -0.029174805 0.03173828
000120 d3 bc 64 3b 0e 3d 18 3d 2e 3c 2a bd 23 3d 03 3d
       -0.025756836 0.003479004 0.03466797 0.037109375 0.010620117 -0.041503906 0.039794922 0.031982422
000130 fc bc b7 bc 82 bc 06 3d 98 bc 89 3b bc 3b 8b ba
       -0.030761719 -0.022338867 -0.01586914 0.032714844 -0.018554688 0.004180908 0.0057373047 -0.0010604858
000140 db ba ea bc ec 3c 0d bd a7 bc d2 3c be 3c af 3b
       -0.0016708374 -0.028564453 0.028808594 -0.034423828 -0.020385742 0.025634766 0.02319336 0.005340576
000150 9f 3c 0d bc a2 3c 92 3c 6f bc 27 3c 19 3c dd 3a
       0.01940918 -0.008605957 0.01977539 0.017822266 -0.014587402 0.010192871 0.009338379 0.0016860962
000160 d6 3c 44 bc c0 bb 06 bc 21 bd 41 3b 54 bc 17 bd
       0.026123047 -0.011962891 -0.005859375 -0.008178711 -0.03930664 0.0029449463 -0.012939453 -0.036865234
000170 0d bd f6 bc 5d 3c 16 3b 02 3b d0 bb fc 3c a2 3c
       -0.034423828 -0.030029297 0.0134887695 0.0022888184 0.0019836426 -0.0063476562 0.030761719 0.01977539
000180 2c 3b cb 3c bc bc 24 bd b9 3c d4 3c 8f bc 64 3c
       0.0026245117 0.024780273 -0.022949219 -0.040039062 0.022583008 0.025878906 -0.017456055 0.013916016
000190 d1 3b 0f 3c d3 3c db bb 29 bb c4 bc 80 bc b3 bc
       0.006378174 0.008728027 0.025756836 -0.0066833496 -0.0025787354 -0.023925781 -0.015625 -0.021850586
0001a0 27 bd 0c bd 0c bd 21 bd 79 bc e7 bc f7 bc c6 bc
       -0.040771484 -0.034179688 -0.034179688 -0.03930664 -0.015197754 -0.028198242 -0.030151367 -0.024169922
0001b0 ea bc e1 bc c5 bc ca 3c 13 bd 0d 3d 1d bd d7 3c
       -0.028564453 -0.02746582 -0.024047852 0.024658203 -0.035888672 0.034423828 -0.038330078 0.026245117
0001c0 02 bd 1b 3d c1 3c e8 bb 53 bc 0a 3b 24 bd 0f bd
       -0.03173828 0.037841797 0.02355957 -0.007080078 -0.012878418 0.002105713 -0.040039062 -0.03491211
0001d0 c0 bc d8 bc 25 3d dd 3c f5 3b 32 bc d4 3c 4f 3c
       -0.0234375 -0.026367188 0.040283203 0.026977539 0.0074768066 -0.010864258 0.025878906 0.012634277
0001e0 37 3c 17 3d 79 bc c6 3c f4 3c 27 3d 88 3c 0e 3c
       0.011169434 0.036865234 -0.015197754 0.024169922 0.029785156 0.040771484 0.016601562 0.008666992
0001f0 a5 bc db bc 18 3d 8d bc 3d 3b 17 bc 10 bc 93 3c
       -0.020141602 -0.026733398 0.037109375 -0.017211914 0.0028839111 -0.009216309 -0.0087890625 0.017944336

conv3.bias bf16 [128]
000000 ea 3c 81 bb 23 ba 34 3c ec 3c d6 3b 4d bc fa bc
       0.028564453 -0.0039367676 -0.00062179565 0.010986328 0.028808594 0.0065307617 -0.012512207 -0.030517578
000010 cc 3c b3 bc 64 bc b3 3c 75 bc 59 bc 2b 3c 1c 3a
       0.024902344 -0.021850586 -0.013916016 0.021850586 -0.014953613 -0.013244629 0.010437012 0.0005950928
000020 48 3c 0f bd f9 3b 6a bb 01 3d 70 bc 4a bc 99 bb
       0.012207031 -0.03491211 0.007598877 -0.0035705566 0.03149414 -0.0146484375 -0.012329102 -0.0046691895
000030 bd 3b f8 3b b5 bc 0d 3c ef 3c 08 3d 0b 3c a8 3c
       0.0057678223 0.0075683594 -0.022094727 0.008605957 0.029174805 0.033203125 0.008483887 0.020507812
000040 8c bc 84 bb 2d 3c 2a 3d 41 3c 18 bd 11 3c 1a 3d
       -0.017089844 -0.0040283203 0.010559082 0.041503906 0.011779785 -0.037109375 0.008850098 0.037597656
000050 1c bd 2b 3b af 3c 87 3c 72 3b bf 3c 0e bd d2 bc
       -0.038085938 0.002609253 0.021362305 0.016479492 0.003692627 0.02331543 -0.03466797 -0.025634766
000060 1a 3d a5 bc 1d 3d 7a bc e4 bc b3 bb 5d 3c a3 bc
       0.037597656 -0.020141602 0.038330078 -0.015258789 -0.027832031 -0.0054626465 0.0134887695 -0.019897461
000070 eb bc 1f bd 32 bc 9e bc f3 3c e0 bc eb bc b0 bc
       -0.028686523 -0.03881836 -0.010864258 -0.01928711 0.029663086 -0.02734375 -0.028686523 -0.021484375
000080 b5 3c a2 bb 9a bc b1 bc e4 3b 6e 3c e2 3c a8 3c
       0.022094727 -0.0049438477 -0.018798828 -0.021606445 0.006958008 0.014526367 0.02758789 0.020507812
000090 ff 3c 0a bc 08 bd 87 3b e5 3c 66 bc 91 3c af bc
       0.03112793 -0.008422852 -0.033203125 0.004119873 0.027954102 -0.014038086 0.017700195 -0.021362305
0000a0 b9 3c 82 3c d0 3c 2b bd 01 3d aa bc f2 3c 07 3b
       0.022583008 0.01586914 0.025390625 -0.041748047 0.03149414 -0.020751953 0.029541016 0.0020599365
0000b0 7e 3c ee 3c f6 3c d2 3c a1 bc ce bb a2 bc 04 bd
       0.01550293 0.029052734 0.030029297 0.025634766 -0.01965332 -0.006286621 -0.01977539 -0.032226562
0000c0 b4 bb aa 3c 18 bc 25 3d b2 bc cd bc 29 bd d8 bc
       -0.005493164 0.020751953 -0.009277344 0.040283203 -0.021728516 -0.025024414 -0.041259766 -0.026367188
0000d0 0b bd 88 bc 9e 3b ca 3b c0 3c e8 bc 1f 3d 91 bc
       -0.033935547 -0.016601562 0.0048217773 0.006164551 0.0234375 -0.028320312 0.03881836 -0.017700195
0000e0 e2 3c 80 3c 1e 3d 50 3c 80 3c 57 bc 7c 3c 06 bd
       0.02758789 0.015625 0.03857422 0.0126953125 0.015625 -0.013122559 0.015380859 -0.032714844
0000f0 1b 3c 28 3c 1b bd 68 bc c8 3c 0a 3d 25 3d 91 bc
       0.009460449 0.010253906 -0.037841797 -0.014160156 0.024414062 0.033691406 0.040283203 -0.017700195

gn3.weight bf16 [128]
000000 80 3f 80 3f 80 3f 80 3f 80 3f 80 3f 80 3f 80 3f
       1.0 1.0 1.0 1.0 1.0 1.0 1.0 1.0
000010 80 3f 80 3f 80 3f 80 3f 80 3f 80 3f 80 3f 80 3f
       1.0 1.0 1.0 1.0 1.0 1.0 1.0 1.0
000020 80 3f 80 3f 80 3f 80 3f 80 3f 80 3f 80 3f 80 3f
       1.0 1.0 1.0 1.0 1.0 1.0 1.0 1.0
000030 80 3f 80 3f 80 3f 80 3f 80 3f 80 3f 80 3f 80 3f
       1.0 1.0 1.0 1.0 1.0 1.0 1.0 1.0
000040 80 3f 80 3f 80 3f 80 3f 80 3f 80 3f 80 3f 80 3f
       1.0 1.0 1.0 1.0 1.0 1.0 1.0 1.0
000050 80 3f 80 3f 80 3f 80 3f 80 3f 80 3f 80 3f 80 3f
       1.0 1.0 1.0 1.0 1.0 1.0 1.0 1.0
000060 80 3f 80 3f 80 3f 80 3f 80 3f 80 3f 80 3f 80 3f
       1.0 1.0 1.0 1.0 1.0 1.0 1.0 1.0
000070 80 3f 80 3f 80 3f 80 3f 80 3f 80 3f 80 3f 80 3f
       1.0 1.0 1.0 1.0 1.0 1.0 1.0 1.0
000080 80 3f 80 3f 80 3f 80 3f 80 3f 80 3f 80 3f 80 3f
       1.0 1.0 1.0 1.0 1.0 1.0 1.0 1.0
000090 80 3f 80 3f 80 3f 80 3f 80 3f 80 3f 80 3f 80 3f
       1.0 1.0 1.0 1.0 1.0 1.0 1.0 1.0
0000a0 80 3f 80 3f 80 3f 80 3f 80 3f 80 3f 80 3f 80 3f
       1.0 1.0 1.0 1.0 1.0 1.0 1.0 1.0
0000b0 80 3f 80 3f 80 3f 80 3f 80 3f 80 3f 80 3f 80 3f
       1.0 1.0 1.0 1.0 1.0 1.0 1.0 1.0
0000c0 80 3f 80 3f 80 3f 80 3f 80 3f 80 3f 80 3f 80 3f
       1.0 1.0 1.0 1.0 1.0 1.0 1.0 1.0
0000d0 80 3f 80 3f 80 3f 80 3f 80 3f 80 3f 80 3f 80 3f
       1.0 1.0 1.0 1.0 1.0 1.0 1.0 1.0
0000e0 80 3f 80 3f 80 3f 80 3f 80 3f 80 3f 80 3f 80 3f
       1.0 1.0 1.0 1.0 1.0 1.0 1.0 1.0
0000f0 80 3f 80 3f 80 3f 80 3f 80 3f 80 3f 80 3f 80 3f
       1.0 1.0 1.0 1.0 1.0 1.0 1.0 1.0

gn3.bias bf16 [128]
000000 00 00 00 00 00 00 00 00 00 00 00 00 00 00 00 00
       0.0 0.0 0.0 0.0 0.0 0.0 0.0 0.0
000010 00 00 00 00 00 00 00 00 00 00 00 00 00 00 00 00
       0.0 0.0 0.0 0.0 0.0 0.0 0.0 0.0
000020 00 00 00 00 00 00 00 00 00 00 00 00 00 00 00 00
       0.0 0.0 0.0 0.0 0.0 0.0 0.0 0.0
000030 00 00 00 00 00 00 00 00 00 00 00 00 00 00 00 00
       0.0 0.0 0.0 0.0 0.0 0.0 0.0 0.0
000040 00 00 00 00 00 00 00 00 00 00 00 00 00 00 00 00
       0.0 0.0 0.0 0.0 0.0 0.0 0.0 0.0
000050 00 00 00 00 00 00 00 00 00 00 00 00 00 00 00 00
       0.0 0.0 0.0 0.0 0.0 0.0 0.0 0.0
000060 00 00 00 00 00 00 00 00 00 00 00 00 00 00 00 00
       0.0 0.0 0.0 0.0 0.0 0.0 0.0 0.0
000070 00 00 00 00 00 00 00 00 00 00 00 00 00 00 00 00
       0.0 0.0 0.0 0.0 0.0 0.0 0.0 0.0
000080 00 00 00 00 00 00 00 00 00 00 00 00 00 00 00 00
       0.0 0.0 0.0 0.0 0.0 0.0 0.0 0.0
000090 00 00 00 00 00 00 00 00 00 00 00 00 00 00 00 00
       0.0 0.0 0.0 0.0 0.0 0.0 0.0 0.0
0000a0 00 00 00 00 00 00 00 00 00 00 00 00 00 00 00 00
       0.0 0.0 0.0 0.0 0.0 0.0 0.0 0.0
0000b0 00 00 00 00 00 00 00 00 00 00 00 00 00 00 00 00
       0.0 0.0 0.0 0.0 0.0 0.0 0.0 0.0
0000c0 00 00 00 00 00 00 00 00 00 00 00 00 00 00 00 00
       0.0 0.0 0.0 0.0 0.0 0.0 0.0 0.0
0000d0 00 00 00 00 00 00 00 00 00 00 00 00 00 00 00 00
       0.0 0.0 0.0 0.0 0.0 0.0 0.0 0.0
0000e0 00 00 00 00 00 00 00 00 00 00 00 00 00 00 00 00
       0.0 0.0 0.0 0.0 0.0 0.0 0.0 0.0
0000f0 00 00 00 00 00 00 00 00 00 00 00 00 00 00 00 00
       0.0 0.0 0.0 0.0 0.0 0.0 0.0 0.0

conv4.weight bf16 [256, 128, 3, 3]
000000 e9 3c 02 bb e3 bc ec 3c 04 3b 95 bb 75 3c 6e bc
       0.028442383 -0.0019836426 -0.027709961 0.028808594 0.0020141602 -0.004547119 0.014953613 -0.014526367
000010 c9 3c 44 3c 19 bb c6 3b 82 3a a4 3b c0 ba 9d 3c
       0.024536133 0.011962891 -0.0023345947 0.0060424805 0.0009918213 0.005004883 -0.0014648438 0.019165039
000020 af bc 50 39 28 3b 88 bc 0a bc ca 3c e7 3c c7 3c
       -0.021362305 0.00019836426 0.0025634766 -0.016601562 -0.008422852 0.024658203 0.028198242 0.024291992
000030 96 39 3f bc d5 3c e0 39 e0 3c d4 bc 4e bc 3f bc
       0.0002861023 -0.011657715 0.026000977 0.0004272461 0.02734375 -0.025878906 -0.012573242 -0.011657715
000040 a8 bc 1c 3c 56 3c 14 bc af 3c a9 bc 82 bc b2 3c
       -0.020507812 0.009521484 0.013061523 -0.009033203 0.021362305 -0.020629883 -0.01586914 0.021728516
000050 b4 bc bc 3c a0 3c 8b bc 86 ba b8 3c d2 3c 11 3c
       -0.021972656 0.022949219 0.01953125 -0.016967773 -0.0010223389 0.022460938 0.025634766 0.008850098
000060 ba 3c c1 bc bc 3b 60 bc b3 3a 85 3c 6a bb d9 bc
       0.022705078 -0.02355957 0.0057373047 -0.013671875 0.0013656616 0.016235352 -0.0035705566 -0.026489258
000070 eb 3c b2 3c b3 3b e8 3b c4 3b 16 3c 96 bc 76 bc
       0.028686523 0.021728516 0.0054626465 0.007080078 0.0059814453 0.009155273 -0.018310547 -0.015014648
000080 c9 bc a1 3c cd bc 4d bc a7 bb 3e 3c 83 3b 27 bc
       -0.024536133 0.01965332 -0.025024414 -0.012512207 -0.0050964355 0.01159668 0.0039978027 -0.010192871
000090 d7 3c d0 3c 9f ba 8c 3c 6c 3c ef bc 2e 3c d6 3c
       0.026245117 0.025390625 -0.0012130737 0.017089844 0.014404297 -0.029174805 0.010620117 0.026123047
0000a0 be bc 0a 3b b7 3c e9 3c eb bc cf bb 4c bb c0 3c
       -0.02319336 0.002105713 0.022338867 0.028442383 -0.028686523 -0.0063171387 -0.003112793 0.0234375
0000b0 a5 bc d1 3c 9f 3b 42 bb 94 bc e3 bc ca bc a3 bc
       -0.020141602 0.025512695 0.004852295 -0.002960205 -0.018066406 -0.027709961 -0.024658203 -0.019897461
0000c0 15 bc c5 3c 6d 3c c6 bc bc 3b 41 3b 66 bc 84 3b
       -0.009094238 0.024047852 0.014465332 -0.024169922 0.0057373047 0.0029449463 -0.014038086 0.0040283203
0000d0 8d 3c 39 3c ae bc a2 bc 4f 3c dc 3c 7b 3b 9b bc
       0.017211914 0.011291504 -0.021240234 -0.01977539 0.012634277 0.026855469 0.003829956 -0.018920898
0000e0 5e 3c eb bc 0d bc cc 3c a4 3c ce bc ed 3c 88 bc
       0.013549805 -0.028686523 -0.008605957 0.024902344 0.020019531 -0.025146484 0.028930664 -0.016601562
0000f0 a8 bc 95 bc 25 bc a5 bc 88 3b af bc 75 bc e0 bc
       -0.020507812 -0.018188477 -0.010070801 -0.020141602 0.0041503906 -0.021362305 -0.014953613 -0.02734375
000100 f1 bb 8a 3b d0 3c 93 3c ef bc 39 3c e7 3c dc 3b
       -0.0073547363 0.004211426 0.025390625 0.017944336 -0.029174805 0.011291504 0.028198242 0.006713867
000110 5c 3b 91 3c 39 bc 9f bc 98 bb cc bb 9c 3c a6 3c
       0.0033569336 0.017700195 -0.011291504 -0.01940918 -0.004638672 -0.006225586 0.019042969 0.020263672
000120 70 bc 26 3b bd bc 5a bc bf bc 6d 3b d4 3c 04 bc
       -0.0146484375 0.002532959 -0.023071289 -0.013305664 -0.02331543 0.003616333 0.025878906 -0.008056641
000130 b9 3c 78 bb 56 3c 27 bc d9 3c c4 bb db bc 13 3a
       0.022583008 -0.0037841797 0.013061523 -0.010192871 0.026489258 -0.0059814453 -0.026733398 0.0005607605
000140 3f bc a6 bc 28 3c 86 3c 3c bc e9 bc 86 3c fa 3b
       -0.011657715 -0.020263672 0.010253906 0.016357422 -0.011474609 -0.028442383 0.016357422 0.0076293945
000150 b9 3c 51 3b df 3c db 3b d8 bc b1 3c 9c bc 6b b9
       0.022583008 0.003189087 0.02722168 0.0066833496 -0.026367188 0.021606445 -0.019042969 -0.00022411346
000160 91 3c 04 3c a7 3c 95 3c 9e 3c 27 3c 46 3c aa bc
       0.017700195 0.008056641 0.020385742 0.018188477 0.01928711 0.010192871 0.012084961 -0.020751953
000170 bc 3c 03 3c bb 3c 84 3b cd bb ef 3c f5 bb 22 bc
       0.022949219 0.0079956055 0.022827148 0.0040283203 -0.0062561035 0.029174805 -0.0074768066 -0.009887695
000180 d8 3c 06 3c 7d bb c1 3c 5c 3c 96 3c b5 bc 36 bc
       0.026367188 0.008178711 -0.0038604736 0.02355957 0.013427734 0.018310547 -0.022094727 -0.011108398
000190 d0 3c 15 bc a3 3c be 3c 4d 3c d9 bc ca 3c 77 bc
       0.025390625 -0.009094238 0.019897461 0.02319336 0.012512207 -0.026489258 0.024658203 -0.015075684
0001a0 eb 3c a0 bb 0d ba b3 3c 2f 3c a6 3c 71 bc bd 3c
       0.028686523 -0.0048828125 -0.0005378723 0.021850586 0.010681152 0.020263672 -0.014709473 0.023071289
0001b0 b9 3c 6b bc 39 bc 42 bc 3f 3c e7 3c 1d 3a 11 3c
       0.022583008 -0.014343262 -0.011291504 -0.01184082 0.011657715 0.028198242 0.00059890747 0.008850098
0001c0 18 bb 57 3c e2 b9 bd 3c 8f bc 8e 3a f0 bc d8 bc
       -0.002319336 0.013122559 -0.0004310608 0.023071289 -0.017456055 0.001083374 -0.029296875 -0.026367188
0001d0 ea bc 05 bc d9 3c ed 3c ed bc 75 3c 0b 3c 48 bc
       -0.028564453 -0.008117676 0.026489258 0.028930664 -0.028930664 0.014953613 0.008483887 -0.012207031
0001e0 f3 3b 01 3c c6 bb b6 bc 96 3c cd bb 22 bc 2a bb
       0.0074157715 0.007873535 -0.0060424805 -0.022216797 0.018310547 -0.0062561035 -0.009887695 -0.0025939941
0001f0 98 3c 24 bc ba 3c 9a bb 5c 3c b2 3c 11 bc 35 bb
       0.018554688 -0.010009766 0.022705078 -0.004699707 0.013427734 0.021728516 -0.008850098 -0.0027618408

conv4.bias bf16 [256]
000000 a1 bc 79 3c e6 bb 05 bc 94 3c b0 3c 9f 3c 55 3c
       -0.01965332 0.015197754 -0.007019043 -0.008117676 0.018066406 0.021484375 0.01940918 0.013000488
000010 d7 bc c9 bb cf bc 40 3c 16 3c e6 bc 79 3c 0c 3c
       -0.026245117 -0.006134033 -0.025268555 0.01171875 0.009155273 -0.028076172 0.015197754 0.008544922
000020 7e bc 10 bc dd bc 17 3c b0 bc ea 3c 39 3b bd ba
       -0.01550293 -0.0087890625 -0.026977539 0.009216309 -0.021484375 0.028564453 0.002822876 -0.0014419556
000030 d8 bc 5f 3b 1f 3b 98 3c ef 3b f1 3b db bc dd 3c
       -0.026367188 0.00340271 0.0024261475 0.018554688 0.007293701 0.0073547363 -0.026733398 0.026977539
000040 97 ba 0a bc da bc 32 3c b3 3b 95 bb c0 3c bc 3c
       -0.0011520386 -0.008422852 -0.026611328 0.010864258 0.0054626465 -0.004547119 0.0234375 0.022949219
000050 c5 bc 58 bc 9a 3c 73 3c 45 3c 67 bc ae 39 84 3b
       -0.024047852 -0.013183594 0.018798828 0.014831543 0.012023926 -0.014099121 0.00033187866 0.0040283203
000060 12 3b e1 3c ff bb 8b 3c 71 bc 0a bc 91 3c ed bc
       0.0022277832 0.02746582 -0.0077819824 0.016967773 -0.014709473 -0.008422852 0.017700195 -0.028930664
000070 d2 3c 5a bc 7c 3c 1b b9 df bb 1a ba e2 bb 96 bc
       0.025634766 -0.013305664 0.015380859 -0.00014781952 -0.00680542 -0.0005874634 -0.0068969727 -0.018310547
000080 e3 bc 40 bc 83 3c 86 3c 52 bc df 3b cd bc 9f 3a
       -0.027709961 -0.01171875 0.015991211 0.016357422 -0.012817383 0.00680542 -0.025024414 0.0012130737
000090 27 bb 98 bb ec bc d6 bc d7 bb da 3c 99 3c d7 bc
       -0.0025482178 -0.004638672 -0.028808594 -0.026123047 -0.0065612793 0.026611328 0.018676758 -0.026245117
0000a0 8f 3b d9 bc 24 bc 81 3c ce 3b af 3c 63 3c 18 3b
       0.0043640137 -0.026489258 -0.010009766 0.01574707 0.006286621 0.021362305 0.0138549805 0.002319336
0000b0 bf 3c 0a bb 8b 3a 4f 3b b4 3b e0 3c dc bb 9f 3a
       0.02331543 -0.002105713 0.0010604858 0.0031585693 0.005493164 0.02734375 -0.006713867 0.0012130737
0000c0 8c bc 6f bc 20 bc 99 3b ed bb 2e 3c 97 bc 3c 3c
       -0.017089844 -0.014587402 -0.009765625 0.0046691895 -0.007232666 0.010620117 -0.018432617 0.011474609
0000d0 d9 bc 5f 3c 90 3c 35 bc 55 bc 26 3c df 3c 19 3c
       -0.026489258 0.01361084 0.017578125 -0.011047363 -0.013000488 0.010131836 0.02722168 0.009338379
0000e0 c4 bc 9b 3c eb ba f0 bc ac 3c d7 bc 9d bc 82 bb
       -0.023925781 0.018920898 -0.0017929077 -0.029296875 0.020996094 -0.026245117 -0.019165039 -0.003967285
0000f0 9e bc 83 bc 72 ba 41 3c 3f 3c b2 39 c8 3b 7e bc
       -0.01928711 -0.015991211 -0.00092315674 0.011779785 0.011657715 0.00033950806 0.0061035156 -0.01550293
000100 dc 3c 42 3c 8e bc 34 3c 52 3c eb 3b a8 3b 97 3c
       0.026855469 0.01184082 -0.017333984 0.010986328 0.012817383 0.007171631 0.005126953 0.018432617
000110 35 3c e4 bc d3 3b 2a bc 90 3b 34 bc 92 3b 4e 3c
       0.011047363 -0.027832031 0.006439209 -0.010375977 0.0043945312 -0.010986328 0.0044555664 0.012573242
000120 bb bc 8f 3c 23 3c e0 bc a3 bc 77 3c 42 3c f7 bb
       -0.022827148 0.017456055 0.0099487305 -0.02734375 -0.019897461 0.015075684 0.01184082 -0.007537842
000130 a9 3c 98 bc 21 3c f0 3c dd 3c 38 bc e5 3c b4 bc
       0.020629883 -0.018554688 0.00982666 0.029296875 0.026977539 -0.011230469 0.027954102 -0.021972656
000140 9c 3c a6 3a d2 bc 76 bc ec 3b 1d 3b e4 3c d6 3c
       0.019042969 0.0012664795 -0.025634766 -0.015014648 0.0072021484 0.0023956299 0.027832031 0.026123047
000150 9b bc 61 bc a6 3c 73 3c 3c bc b0 3c 9c 3c 99 3b
       -0.018920898 -0.01373291 0.020263672 0.014831543 -0.011474609 0.021484375 0.019042969 0.0046691895
000160 8c bb 41 3c 8d bc e7 3c 3e bb e1 bc 05 bc 08 bc
       -0.004272461 0.011779785 -0.017211914 0.028198242 -0.00289917 -0.02746582 -0.008117676 -0.008300781
000170 ce bc 22 bc ce 3c de 3b b4 bc 55 3c 95 bc d6 3c
       -0.025146484 -0.009887695 0.025146484 0.0067749023 -0.021972656 0.013000488 -0.018188477 0.026123047
000180 87 3c 10 bc 99 3b 52 bc 77 bb be bb 6d bc e1 bc
       0.016479492 -0.0087890625 0.0046691895 -0.012817383 -0.003768921 -0.00579834 -0.014465332 -0.02746582
000190 c9 bc 96 3c 73 3c c8 3b a3 3c 6c bc d8 bc 36 bc
       -0.024536133 0.018310547 0.014831543 0.0061035156 0.019897461 -0.014404297 -0.026367188 -0.011108398
0001a0 c6 3c 12 bc 35 3c 69 3b 8b 3c 0c 3c 86 3c dd bc
       0.024169922 -0.008911133 0.011047363 0.0035552979 0.016967773 0.008544922 0.016357422 -0.026977539
0001b0 e7 3c c0 3a ab 3c 4e 3c b9 3c 4b 3a c6 3b c6 bc
       0.028198242 0.0014648438 0.020874023 0.012573242 0.022583008 0.00077438354 0.0060424805 -0.024169922
0001c0 a8 3c 9e 3c c1 bc 8f 3c e5 bc 99 3c 4f bc 01 3c
       0.020507812 0.01928711 -0.02355957 0.017456055 -0.027954102 0.018676758 -0.012634277 0.007873535
0001d0 67 ba e4 3c 18 3c a2 bc e9 3c e3 3b b2 bc e8 3c
       -0.00088119507 0.027832031 0.009277344 -0.01977539 0.028442383 0.0069274902 -0.021728516 0.028320312
0001e0 cb bc c0 3b 9b bc 9a 3a da 3c c6 bc 2a 3c a3 3c
       -0.024780273 0.005859375 -0.018920898 0.0011749268 0.026611328 -0.024169922 0.010375977 0.019897461
0001f0 47 bc b9 3c e3 3c 58 bc cf bc 08 bc 83 bb ec 3c
       -0.012145996 0.022583008 0.027709961 -0.013183594 -0.025268555 -0.008300781 -0.0039978027 0.028808594

gn4.weight bf16 [256]
000000 80 3f 80 3f 80 3f 80 3f 80 3f 80 3f 80 3f 80 3f
       1.0 1.0 1.0 1.0 1.0 1.0 1.0 1.0
000010 80 3f 80 3f 80 3f 80 3f 80 3f 80 3f 80 3f 80 3f
       1.0 1.0 1.0 1.0 1.0 1.0 1.0 1.0
000020 80 3f 80 3f 80 3f 80 3f 80 3f 80 3f 80 3f 80 3f
       1.0 1.0 1.0 1.0 1.0 1.0 1.0 1.0
000030 80 3f 80 3f 80 3f 80 3f 80 3f 80 3f 80 3f 80 3f
       1.0 1.0 1.0 1.0 1.0 1.0 1.0 1.0
000040 80 3f 80 3f 80 3f 80 3f 80 3f 80 3f 80 3f 80 3f
       1.0 1.0 1.0 1.0 1.0 1.0 1.0 1.0
000050 80 3f 80 3f 80 3f 80 3f 80 3f 80 3f 80 3f 80 3f
       1.0 1.0 1.0 1.0 1.0 1.0 1.0 1.0
000060 80 3f 80 3f 80 3f 80 3f 80 3f 80 3f 80 3f 80 3f
       1.0 1.0 1.0 1.0 1.0 1.0 1.0 1.0
000070 80 3f 80 3f 80 3f 80 3f 80 3f 80 3f 80 3f 80 3f
       1.0 1.0 1.0 1.0 1.0 1.0 1.0 1.0
000080 80 3f 80 3f 80 3f 80 3f 80 3f 80 3f 80 3f 80 3f
       1.0 1.0 1.0 1.0 1.0 1.0 1.0 1.0
000090 80 3f 80 3f 80 3f 80 3f 80 3f 80 3f 80 3f 80 3f
       1.0 1.0 1.0 1.0 1.0 1.0 1.0 1.0
0000a0 80 3f 80 3f 80 3f 80 3f 80 3f 80 3f 80 3f 80 3f
       1.0 1.0 1.0 1.0 1.0 1.0 1.0 1.0
0000b0 80 3f 80 3f 80 3f 80 3f 80 3f 80 3f 80 3f 80 3f
       1.0 1.0 1.0 1.0 1.0 1.0 1.0 1.0
0000c0 80 3f 80 3f 80 3f 80 3f 80 3f 80 3f 80 3f 80 3f
       1.0 1.0 1.0 1.0 1.0 1.0 1.0 1.0
0000d0 80 3f 80 3f 80 3f 80 3f 80 3f 80 3f 80 3f 80 3f
       1.0 1.0 1.0 1.0 1.0 1.0 1.0 1.0
0000e0 80 3f 80 3f 80 3f 80 3f 80 3f 80 3f 80 3f 80 3f
       1.0 1.0 1.0 1.0 1.0 1.0 1.0 1.0
0000f0 80 3f 80 3f 80 3f 80 3f 80 3f 80 3f 80 3f 80 3f
       1.0 1.0 1.0 1.0 1.0 1.0 1.0 1.0
000100 80 3f 80 3f 80 3f 80 3f 80 3f 80 3f 80 3f 80 3f
       1.0 1.0 1.0 1.0 1.0 1.0 1.0 1.0
000110 80 3f 80 3f 80 3f 80 3f 80 3f 80 3f 80 3f 80 3f
       1.0 1.0 1.0 1.0 1.0 1.0 1.0 1.0
000120 80 3f 80 3f 80 3f 80 3f 80 3f 80 3f 80 3f 80 3f
       1.0 1.0 1.0 1.0 1.0 1.0 1.0 1.0
000130 80 3f 80 3f 80 3f 80 3f 80 3f 80 3f 80 3f 80 3f
       1.0 1.0 1.0 1.0 1.0 1.0 1.0 1.0
000140 80 3f 80 3f 80 3f 80 3f 80 3f 80 3f 80 3f 80 3f
       1.0 1.0 1.0 1.0 1.0 1.0 1.0 1.0
000150 80 3f 80 3f 80 3f 80 3f 80 3f 80 3f 80 3f 80 3f
       1.0 1.0 1.0 1.0 1.0 1.0 1.0 1.0
000160 80 3f 80 3f 80 3f 80 3f 80 3f 80 3f 80 3f 80 3f
       1.0 1.0 1.0 1.0 1.0 1.0 1.0 1.0
000170 80 3f 80 3f 80 3f 80 3f 80 3f 80 3f 80 3f 80 3f
       1.0 1.0 1.0 1.0 1.0 1.0 1.0 1.0
000180 80 3f 80 3f 80 3f 80 3f 80 3f 80 3f 80 3f 80 3f
       1.0 1.0 1.0 1.0 1.0 1.0 1.0 1.0
000190 80 3f 80 3f 80 3f 80 3f 80 3f 80 3f 80 3f 80 3f
       1.0 1.0 1.0 1.0 1.0 1.0 1.0 1.0
0001a0 80 3f 80 3f 80 3f 80 3f 80 3f 80 3f 80 3f 80 3f
       1.0 1.0 1.0 1.0 1.0 1.0 1.0 1.0
0001b0 80 3f 80 3f 80 3f 80 3f 80 3f 80 3f 80 3f 80 3f
       1.0 1.0 1.0 1.0 1.0 1.0 1.0 1.0
0001c0 80 3f 80 3f 80 3f 80 3f 80 3f 80 3f 80 3f 80 3f
       1.0 1.0 1.0 1.0 1.0 1.0 1.0 1.0
0001d0 80 3f 80 3f 80 3f 80 3f 80 3f 80 3f 80 3f 80 3f
       1.0 1.0 1.0 1.0 1.0 1.0 1.0 1.0
0001e0 80 3f 80 3f 80 3f 80 3f 80 3f 80 3f 80 3f 80 3f
       1.0 1.0 1.0 1.0 1.0 1.0 1.0 1.0
0001f0 80 3f 80 3f 80 3f 80 3f 80 3f 80 3f 80 3f 80 3f
       1.0 1.0 1.0 1.0 1.0 1.0 1.0 1.0

gn4.bias bf16 [256]
000000 00 00 00 00 00 00 00 00 00 00 00 00 00 00 00 00
       0.0 0.0 0.0 0.0 0.0 0.0 0.0 0.0
000010 00 00 00 00 00 00 00 00 00 00 00 00 00 00 00 00
       0.0 0.0 0.0 0.0 0.0 0.0 0.0 0.0
000020 00 00 00 00 00 00 00 00 00 00 00 00 00 00 00 00
       0.0 0.0 0.0 0.0 0.0 0.0 0.0 0.0
000030 00 00 00 00 00 00 00 00 00 00 00 00 00 00 00 00
       0.0 0.0 0.0 0.0 0.0 0.0 0.0 0.0
000040 00 00 00 00 00 00 00 00 00 00 00 00 00 00 00 00
       0.0 0.0 0.0 0.0 0.0 0.0 0.0 0.0
000050 00 00 00 00 00 00 00 00 00 00 00 00 00 00 00 00
       0.0 0.0 0.0 0.0 0.0 0.0 0.0 0.0
000060 00 00 00 00 00 00 00 00 00 00 00 00 00 00 00 00
       0.0 0.0 0.0 0.0 0.0 0.0 0.0 0.0
000070 00 00 00 00 00 00 00 00 00 00 00 00 00 00 00 00
       0.0 0.0 0.0 0.0 0.0 0.0 0.0 0.0
000080 00 00 00 00 00 00 00 00 00 00 00 00 00 00 00 00
       0.0 0.0 0.0 0.0 0.0 0.0 0.0 0.0
000090 00 00 00 00 00 00 00 00 00 00 00 00 00 00 00 00
       0.0 0.0 0.0 0.0 0.0 0.0 0.0 0.0
0000a0 00 00 00 00 00 00 00 00 00 00 00 00 00 00 00 00
       0.0 0.0 0.0 0.0 0.0 0.0 0.0 0.0
0000b0 00 00 00 00 00 00 00 00 00 00 00 00 00 00 00 00
       0.0 0.0 0.0 0.0 0.0 0.0 0.0 0.0
0000c0 00 00 00 00 00 00 00 00 00 00 00 00 00 00 00 00
       0.0 0.0 0.0 0.0 0.0 0.0 0.0 0.0
0000d0 00 00 00 00 00 00 00 00 00 00 00 00 00 00 00 00
       0.0 0.0 0.0 0.0 0.0 0.0 0.0 0.0
0000e0 00 00 00 00 00 00 00 00 00 00 00 00 00 00 00 00
       0.0 0.0 0.0 0.0 0.0 0.0 0.0 0.0
0000f0 00 00 00 00 00 00 00 00 00 00 00 00 00 00 00 00
       0.0 0.0 0.0 0.0 0.0 0.0 0.0 0.0
000100 00 00 00 00 00 00 00 00 00 00 00 00 00 00 00 00
       0.0 0.0 0.0 0.0 0.0 0.0 0.0 0.0
000110 00 00 00 00 00 00 00 00 00 00 00 00 00 00 00 00
       0.0 0.0 0.0 0.0 0.0 0.0 0.0 0.0
000120 00 00 00 00 00 00 00 00 00 00 00 00 00 00 00 00
       0.0 0.0 0.0 0.0 0.0 0.0 0.0 0.0
000130 00 00 00 00 00 00 00 00 00 00 00 00 00 00 00 00
       0.0 0.0 0.0 0.0 0.0 0.0 0.0 0.0
000140 00 00 00 00 00 00 00 00 00 00 00 00 00 00 00 00
       0.0 0.0 0.0 0.0 0.0 0.0 0.0 0.0
000150 00 00 00 00 00 00 00 00 00 00 00 00 00 00 00 00
       0.0 0.0 0.0 0.0 0.0 0.0 0.0 0.0
000160 00 00 00 00 00 00 00 00 00 00 00 00 00 00 00 00
       0.0 0.0 0.0 0.0 0.0 0.0 0.0 0.0
000170 00 00 00 00 00 00 00 00 00 00 00 00 00 00 00 00
       0.0 0.0 0.0 0.0 0.0 0.0 0.0 0.0
000180 00 00 00 00 00 00 00 00 00 00 00 00 00 00 00 00
       0.0 0.0 0.0 0.0 0.0 0.0 0.0 0.0
000190 00 00 00 00 00 00 00 00 00 00 00 00 00 00 00 00
       0.0 0.0 0.0 0.0 0.0 0.0 0.0 0.0
0001a0 00 00 00 00 00 00 00 00 00 00 00 00 00 00 00 00
       0.0 0.0 0.0 0.0 0.0 0.0 0.0 0.0
0001b0 00 00 00 00 00 00 00 00 00 00 00 00 00 00 00 00
       0.0 0.0 0.0 0.0 0.0 0.0 0.0 0.0
0001c0 00 00 00 00 00 00 00 00 00 00 00 00 00 00 00 00
       0.0 0.0 0.0 0.0 0.0 0.0 0.0 0.0
0001d0 00 00 00 00 00 00 00 00 00 00 00 00 00 00 00 00
       0.0 0.0 0.0 0.0 0.0 0.0 0.0 0.0
0001e0 00 00 00 00 00 00 00 00 00 00 00 00 00 00 00 00
       0.0 0.0 0.0 0.0 0.0 0.0 0.0 0.0
0001f0 00 00 00 00 00 00 00 00 00 00 00 00 00 00 00 00
       0.0 0.0 0.0 0.0 0.0 0.0 0.0 0.0

depth_pred.weight bf16 [1, 256, 3, 3]
000000 1a 3c 9f bc 85 bc e0 bb bf 3b 9b bc 4c 3c 3f bc
       0.009399414 -0.01940918 -0.016235352 -0.0068359375 0.0058288574 -0.018920898 0.012451172 -0.011657715
000010 e3 b8 d5 3b 44 bc eb bb 39 3c 92 bc a1 bb f9 3b
       -0.000108242035 0.006500244 -0.011962891 -0.007171631 0.011291504 -0.017822266 -0.00491333 0.007598877
000020 7d bb a3 bc 35 3c 2d 3b 99 3c f5 3b 31 bb 9c bc
       -0.0038604736 -0.019897461 0.011047363 0.0026397705 0.018676758 0.0074768066 -0.0027008057 -0.019042969
000030 16 3c a0 bc 63 3c d7 bb 11 bc 4d bc 3f 3c 30 bc
       0.009155273 -0.01953125 0.0138549805 -0.0065612793 -0.008850098 -0.012512207 0.011657715 -0.0107421875
000040 f7 3b 97 3b 26 bc 9c bc 11 3c 89 ba d8 bb a4 bc
       0.007537842 0.0046081543 -0.010131836 -0.019042969 0.008850098 -0.001045227 -0.006591797 -0.020019531
000050 0f bc 55 bc 04 bc 65 3c 77 3b 9f 3c 85 3c 0f 3b
       -0.008728027 -0.013000488 -0.008056641 0.013977051 0.003768921 0.01940918 0.016235352 0.0021820068
000060 9c bc 3f bb 61 bc 22 3c 90 3b 7a 3c 7b 3c 3b bc
       -0.019042969 -0.0029144287 -0.01373291 0.009887695 0.0043945312 0.015258789 0.015319824 -0.011413574
000070 01 3c 7a 3c e5 ba 9b 3c e3 ba 57 bc c8 bb fe ba
       0.007873535 0.015258789 -0.0017471313 0.018920898 -0.0017318726 -0.013122559 -0.0061035156 -0.0019378662
000080 49 ba 22 3c 86 bc 6c bc 14 3c 98 bc aa 3a 9d 3c
       -0.00076675415 0.009887695 -0.016357422 -0.014404297 0.009033203 -0.018554688 0.0012969971 0.019165039
000090 02 3c a9 bc 86 bc 9d bb 55 3c 84 3c 26 3a 9e bb
       0.00793457 -0.020629883 -0.016357422 -0.0047912598 0.013000488 0.016113281 0.00063323975 -0.0048217773
0000a0 4d bc 1b 3b 72 bc a7 3c a3 3c 91 bc b5 bb 10 bc
       -0.012512207 0.0023651123 -0.014770508 0.020385742 0.019897461 -0.017700195 -0.0055236816 -0.0087890625
0000b0 79 3c 3d b9 01 bb 9e bc 82 ba 46 3b 80 3c 35 ba
       0.015197754 -0.00018024445 -0.0019683838 -0.01928711 -0.0009918213 0.0030212402 0.015625 -0.0006904602
0000c0 a8 3c fe 3b 8b 3c 29 3b 88 bc 03 bb 27 bc 88 3c
       0.020507812 0.007751465 0.016967773 0.0025787354 -0.016601562 -0.0019989014 -0.010192871 0.016601562
0000d0 7c b9 81 bb c0 b8 1c 3c 81 bc 2a 3b 88 3c 86 bc
       -0.00024032593 -0.0039367676 -9.1552734e-05 0.009521484 -0.01574707 0.0025939941 0.016601562 -0.016357422
0000e0 01 bc a1 bc b6 3a 62 3c 5c bc f7 bb 7b bc f5 bb
       -0.007873535 -0.01965332 0.0013885498 0.013793945 -0.013427734 -0.007537842 -0.015319824 -0.0074768066
0000f0 96 bc a4 3a 2d 3c 64 bc 9c 3c d8 bb 93 3c 51 bc
       -0.018310547 0.0012512207 0.010559082 -0.013916016 0.019042969 -0.006591797 0.017944336 -0.012756348
000100 7e 3c 6d bc f5 bb 81 3c 73 bc 7a bc b7 3b 61 bc
       0.01550293 -0.014465332 -0.0074768066 0.01574707 -0.014831543 -0.015258789 0.005584717 -0.01373291
000110 13 3c 79 bc 79 3c 29 bc f3 3b a3 38 4a bc 79 bc
       0.008972168 -0.015197754 0.015197754 -0.010314941 0.0074157715 7.772446e-05 -0.012329102 -0.015197754
000120 5d bc 83 3c 7a bc 0c bb a2 bc 48 3b 95 bc 9a 3c
       -0.0134887695 0.015991211 -0.015258789 -0.0021362305 -0.01977539 0.0030517578 -0.018188477 0.018798828
000130 67 bc 80 3c da ba 50 3b 1c 3c 24 3c 86 bb 61 bc
       -0.014099121 0.015625 -0.001663208 0.0031738281 0.009521484 0.010009766 -0.0040893555 -0.01373291
000140 06 bc b1 ba b7 3b 8f bc 97 bb 8b bc ce 3b 3d 3c
       -0.008178711 -0.0013504028 0.005584717 -0.017456055 -0.0046081543 -0.016967773 0.006286621 0.0115356445
000150 d2 3a 90 3c 31 bc a2 bc 97 bc 02 3c a3 3c 8c bc
       0.0016021729 0.017578125 -0.010803223 -0.01977539 -0.018432617 0.00793457 0.019897461 -0.017089844
000160 40 bc 94 3c 35 3c 4f 3c a0 3c 89 bc ed 39 7b 39
       -0.01171875 0.018066406 0.011047363 0.012634277 0.01953125 -0.016723633 0.00045204163 0.00023937225
000170 a5 bc d9 3b 5c bc 6e bc 3a bc ef 3b 54 bc a6 bc
       -0.020141602 0.0066223145 -0.013427734 -0.014526367 -0.011352539 0.007293701 -0.012939453 -0.020263672
000180 10 3c 8b bc 63 3c 12 bc 95 3c c4 3b 4f bc 34 bc
       0.0087890625 -0.016967773 0.0138549805 -0.008911133 0.018188477 0.0059814453 -0.012634277 -0.010986328
000190 bc bb 1d ba 51 3b 92 3c 18 bc 13 ba 69 bc 4f ba
       -0.0057373047 -0.00059890747 0.003189087 0.017822266 -0.009277344 -0.0005607605 -0.014221191 -0.00078964233
0001a0 b7 bb c2 3a a4 3c 67 3c b0 bb a7 bc a4 3c 84 3c
       -0.005584717 0.0014801025 0.020019531 0.014099121 -0.0053710938 -0.020385742 0.020019531 0.016113281
0001b0 29 bc 03 ba 96 3c c9 bb 3a 3c 55 bc a2 bb 9b 3b
       -0.010314941 -0.00049972534 0.018310547 -0.006134033 0.011352539 -0.013000488 -0.0049438477 0.0047302246
0001c0 13 3c c2 3a 63 bc 18 bc 7a bc 49 3c 8b bc 98 bc
       0.008972168 0.0014801025 -0.0138549805 -0.009277344 -0.015258789 0.012268066 -0.016967773 -0.018554688
0001d0 d3 3b ae bb 89 bc 62 bc 65 3c dd bb 5e bc 9b bc
       0.006439209 -0.0053100586 -0.016723633 -0.013793945 0.013977051 -0.0067443848 -0.013549805 -0.018920898
0001e0 20 3c f4 bb e0 3a 12 38 54 bc a1 ba 9b bc 36 3b
       0.009765625 -0.007446289 0.0017089844 3.4809113e-05 -0.012939453 -0.0012283325 -0.018920898 0.0027770996
0001f0 98 bc 6f 3c 5b bb 7d 3c 19 3a 1f 3c 56 3c 34 bc
       -0.018554688 0.014587402 -0.0033416748 0.0154418945 0.0005836487 0.00970459 0.013061523 -0.010986328
